…
-1------------------------------------------------------------
self.data_dir=/home/mpekmezci/RIR_DATA/BUTReverbDB/BUT_ReverbDB_rel_19_06_RIR-Only
rirData Length =1489
-4------------------------------------------------------------
len(self.rir_data):{len(self.rir_data)}
self.selected_room_id=VUT_FIT_C236
SCRIPT IS FINISHED
Finished to generate report data for MESHTAE model
Starting to generate report table with MESHTAE model
metadata_dir=/home/mpekmezci/RIR_REPORT/GTURIR//MESHTAE/METADATA_GTURIR
This file is found in /home/mpekmezci/workspace-python/gtu-rir/03.data_generation/rir-generators-4/MESHTAE/evaluate
STAGE1_G(
  (cond_net): COND_NET(
    (fc): Linear(in_features=16, out_features=10, bias=True)
    (relu): PReLU(num_parameters=1)
  )
  (fc): Sequential(
    (0): Linear(in_features=10, out_features=32768, bias=False)
    (1): BatchNorm1d(32768, eps=1e-05, momentum=0.1, affine=True, track_running_stats=True)
    (2): PReLU(num_parameters=1)
  )
  (upsample1): Sequential(
    (0): ConvTranspose1d(2048, 1024, kernel_size=(41,), stride=(4,), padding=(19,), output_padding=(1,))
    (1): BatchNorm1d(1024, eps=1e-05, momentum=0.1, affine=True, track_running_stats=True)
    (2): PReLU(num_parameters=1)
  )
  (upsample2): Sequential(
    (0): ConvTranspose1d(1024, 512, kernel_size=(41,), stride=(4,), padding=(19,), output_padding=(1,))
    (1): BatchNorm1d(512, eps=1e-05, momentum=0.1, affine=True, track_running_stats=True)
    (2): PReLU(num_parameters=1)
  )
  (upsample3): Sequential(
    (0): ConvTranspose1d(512, 256, kernel_size=(41,), stride=(4,), padding=(19,), output_padding=(1,))
    (1): BatchNorm1d(256, eps=1e-05, momentum=0.1, affine=True, track_running_stats=True)
    (2): PReLU(num_parameters=1)
  )
  (upsample4): Sequential(
    (0): ConvTranspose1d(256, 128, kernel_size=(41,), stride=(2,), padding=(20,), output_padding=(1,))
    (1): BatchNorm1d(128, eps=1e-05, momentum=0.1, affine=True, track_running_stats=True)
    (2): PReLU(num_parameters=1)
  )
  (upsample5): Sequential(
    (0): ConvTranspose1d(128, 128, kernel_size=(41,), stride=(2,), padding=(20,), output_padding=(1,))
    (1): BatchNorm1d(128, eps=1e-05, momentum=0.1, affine=True, track_running_stats=True)
    (2): PReLU(num_parameters=1)
  )
  (RIR): Sequential(
    (0): ConvTranspose1d(128, 1, kernel_size=(41,), stride=(1,), padding=(20,))
    (1): Tanh()
  )
)
Load from:  Models/netG_GAN_500_nodes_8_heads.pth
load  /home/mpekmezci/RIR_REPORT/GTURIR//MESHTAE/METADATA_GTURIR/Embeddings//METADATA_GTURIR.mesh_embeddings.pickle
embed_name    /home/mpekmezci/RIR_REPORT/GTURIR//MESHTAE/room-conferrence01
embed_name    /home/mpekmezci/RIR_REPORT/GTURIR//MESHTAE/room-z23
embed_name    /home/mpekmezci/RIR_REPORT/GTURIR//MESHTAE/room-z06
…
