…
rs-renaming
  pymeshlab_mesh.apply_filter('simplification_quadric_edge_collapse_decimation', targetfacenum=TOTAL_NUMBER_OF_FACES, preservenormal=True)
/usr/local/lib/python3.10/dist-packages/cupyx/jit/_interface.py:173: FutureWarning: cupyx.jit.rawkernel is experimental. The interface can change in the future.
  cupy._util.experimental('cupyx.jit.rawkernel')
metadata_dir=/home/mpekmezci/RIR_REPORT/BUTReverbDB//MESHTAE/METADATA_BUTReverbDB
This file is found in /home/mpekmezci/workspace-python/gtu-rir/03.data_generation/rir-generators-4/MESHTAE/evaluate
STAGE1_G(
  (cond_net): COND_NET(
    (fc): Linear(in_features=16, out_features=10, bias=True)
    (relu): PReLU(num_parameters=1)
  )
  (fc): Sequential(
    (0): Linear(in_features=10, out_features=32768, bias=False)
    (1): BatchNorm1d(32768, eps=1e-05, momentum=0.1, affine=True, track_running_stats=True)
    (2): PReLU(num_parameters=1)
  )
  (upsample1): Sequential(
    (0): ConvTranspose1d(2048, 1024, kernel_size=(41,), stride=(4,), padding=(19,), output_padding=(1,))
    (1): BatchNorm1d(1024, eps=1e-05, momentum=0.1, affine=True, track_running_stats=True)
    (2): PReLU(num_parameters=1)
  )
  (upsample2): Sequential(
    (0): ConvTranspose1d(1024, 512, kernel_size=(41,), stride=(4,), padding=(19,), output_padding=(1,))
    (1): BatchNorm1d(512, eps=1e-05, momentum=0.1, affine=True, track_running_stats=True)
    (2): PReLU(num_parameters=1)
  )
  (upsample3): Sequential(
    (0): ConvTranspose1d(512, 256, kernel_size=(41,), stride=(4,), padding=(19,), output_padding=(1,))
    (1): BatchNorm1d(256, eps=1e-05, momentum=0.1, affine=True, track_running_stats=True)
    (2): PReLU(num_parameters=1)
  )
  (upsample4): Sequential(
    (0): ConvTranspose1d(256, 128, kernel_size=(41,), stride=(2,), padding=(20,), output_padding=(1,))
    (1): BatchNorm1d(128, eps=1e-05, momentum=0.1, affine=True, track_running_stats=True)
    (2): PReLU(num_parameters=1)
  )
  (upsample5): Sequential(
    (0): ConvTranspose1d(128, 128, kernel_size=(41,), stride=(2,), padding=(20,), output_padding=(1,))
    (1): BatchNorm1d(128, eps=1e-05, momentum=0.1, affine=True, track_running_stats=True)
    (2): PReLU(num_parameters=1)
  )
  (RIR): Sequential(
    (0): ConvTranspose1d(128, 1, kernel_size=(41,), stride=(1,), padding=(20,))
    (1): Tanh()
  )
)
Load from:  Models/netG_GAN_3000_nodes_8_heads.pth
MESH EMBEDDINGS FILE  /home/mpekmezci/RIR_REPORT/BUTReverbDB//MESHTAE/METADATA_BUTReverbDB/Embeddings//METADATA_BUTReverbDB.mesh_embeddings.pickle DOES NOT EXISTS SO STARTING TO GENERATE ......
build_mesh_embeddings_for_evaluation_data started...
Load GAE MESH NET from:  Models/mesh_net_transformer_3000_nodes_8_heads.pth
…
