…
len(embeddings)=8978944  len(synthetic_geometric_embeddings)=2299264
###################### GAETrainer : cfg.TRAIN.FLAG=True  ############################
torch.cuda.is_available()=True
========================================================================================================================
Layer (type:depth-idx)                                                 Output Shape              Param #
========================================================================================================================
MESH_TRANSFORMER_AE                                                    [24, 500, 16]             --
├─Linear: 1-1                                                          [24, 500, 10]             80
├─Linear: 1-2                                                          [24, 500, 9]              99
├─TransformerEncoder: 1-3                                              [24, 10]                  --
│    └─ModuleList: 2-1                                                 --                        --
│    │    └─EncoderBlock: 3-1                                          [24, 500, 9]              27,665
│    └─Linear: 2-2                                                     [24, 10]                  45,010
│    └─Linear: 2-3                                                     [24, 4500]                49,500
│    └─Linear: 2-4                                                     [24, 500, 9]              90
│    └─Linear: 2-5                                                     [24, 500, 9]              90
├─TransformerDecoder: 1-4                                              [24, 500, 16]             --
│    └─ModuleList: 2-6                                                 --                        --
│    │    └─DecoderBlock: 3-2                                          [24, 500, 9]              36,395
│    └─Linear: 2-7                                                     [24, 500, 16]             160
========================================================================================================================
Total params: 159,089
Trainable params: 159,089
Non-trainable params: 0
Total mult-adds (M): 3.82
========================================================================================================================
Input size (MB): 0.77
Forward/backward pass size (MB): 421.35
…
