…
synthetic_geometric_embeddings.pickle embeddings are loaded ...
len(embeddings)=8978944  len(synthetic_geometric_embeddings)=2299264
###################### GAETrainer : cfg.TRAIN.FLAG=True  ############################
torch.cuda.is_available()=True
===================================================================================================================
Layer (type:depth-idx)                                            Output Shape              Param #
===================================================================================================================
MESH_TRANSFORMER_ENCODER                                          [1, 10]                   --
├─Linear: 1-1                                                     [1, 3000, 10]             80
├─Linear: 1-2                                                     [1, 3000, 9]              99
├─TransformerEncoder: 1-3                                         [1, 10]                   --
│    └─ModuleList: 2-1                                            --                        --
│    │    └─EncoderBlock: 3-1                                     [1, 3000, 9]              27,665
│    └─Linear: 2-2                                                [1, 10]                   270,010
│    └─Linear: 2-3                                                [1, 27000]                297,000
│    └─Linear: 2-4                                                [1, 3000, 9]              90
│    └─Linear: 2-5                                                [1, 3000, 9]              90
===================================================================================================================
Total params: 595,034
Trainable params: 595,034
Non-trainable params: 0
Total mult-adds (M): 0.60
===================================================================================================================
Input size (MB): 0.19
Forward/backward pass size (MB): 47.30
Params size (MB): 2.38
…
