…
encode 5 . mean.shape=torch.Size([32, 8])
encode 5 . logstd.shape=torch.Size([32, 8])
decode 1 . Z1.shape=torch.Size([32, 15000])
decode 2 . Z1.shape=torch.Size([32, 3000, 5])
decode 3 . Z1.shape=torch.Size([32, 3000, 5])
decode 4 . ZX.shape=torch.Size([32, 3000, 5])
decode 5 . X_pred.shape=torch.Size([32, 3000, 3])
==========================================================================================
Layer (type:depth-idx)                   Output Shape              Param #
==========================================================================================
MESH_NET_GAE                             [32, 3000, 3]             40
├─GCNConv: 1-1                           [178364, 1024]            1,024
│    └─Linear: 2-1                       [178364, 1024]            3,072
│    └─SumAggregation: 2-2               [178364, 1024]            --
├─TopKPooling: 1-2                       [107040, 1024]            1,024
├─GCNConv: 1-3                           [107040, 1024]            1,024
│    └─Linear: 2-3                       [107040, 1024]            1,048,576
│    └─SumAggregation: 2-4               [107040, 1024]            --
├─TopKPooling: 1-4                       [64243, 1024]             1,024
├─GCNConv: 1-5                           [64243, 1024]             1,024
│    └─Linear: 2-5                       [64243, 1024]             1,048,576
│    └─SumAggregation: 2-6               [64243, 1024]             --
├─TopKPooling: 1-6                       [38557, 1024]             1,024
├─Linear: 1-7                            [32, 8]                   16,392
├─ReLU: 1-8                              [32, 8]                   --
├─Linear: 1-9                            [32, 8]                   16,392
├─ReLU: 1-10                             [32, 8]                   --
├─Linear: 1-11                           [32, 15000]               135,000
==========================================================================================
Total params: 2,274,192
Trainable params: 2,274,192
Non-trainable params: 0
Total mult-adds (G): 180.37
==========================================================================================
Input size (MB): 19.38
Forward/backward pass size (MB): 4587.16
Params size (MB): 9.08
Estimated Total Size (MB): 4615.63
…
