…
###################### GANTrainer : cfg.TRAIN.FLAG=True  ############################
###################### GANTrainer : self.model_dir=../output/RIR_stageI_2025_05_20_01_38_46/Model  ############################
from model import STAGE1_G
from model import STAGE1_D
==========================================================================================
Layer (type:depth-idx)                   Output Shape              Param #
==========================================================================================
STAGE1_G                                 --                        --
├─COND_NET: 1-1                          [128, 10]                 --
│    └─Linear: 2-1                       [128, 10]                 1,350
│    └─PReLU: 2-2                        [128, 10]                 1
├─Sequential: 1-2                        [128, 32768]              --
│    └─Linear: 2-3                       [128, 32768]              327,680
│    └─BatchNorm1d: 2-4                  [128, 32768]              65,536
│    └─PReLU: 2-5                        [128, 32768]              1
├─Sequential: 1-3                        [128, 1024, 64]           --
│    └─ConvTranspose1d: 2-6              [128, 1024, 64]           85,984,256
│    └─BatchNorm1d: 2-7                  [128, 1024, 64]           2,048
│    └─PReLU: 2-8                        [128, 1024, 64]           1
├─Sequential: 1-4                        [128, 512, 256]           --
│    └─ConvTranspose1d: 2-9              [128, 512, 256]           21,496,320
│    └─BatchNorm1d: 2-10                 [128, 512, 256]           1,024
│    └─PReLU: 2-11                       [128, 512, 256]           1
├─Sequential: 1-5                        [128, 256, 1024]          --
│    └─ConvTranspose1d: 2-12             [128, 256, 1024]          5,374,208
│    └─BatchNorm1d: 2-13                 [128, 256, 1024]          512
│    └─PReLU: 2-14                       [128, 256, 1024]          1
├─Sequential: 1-6                        [128, 128, 2048]          --
│    └─ConvTranspose1d: 2-15             [128, 128, 2048]          1,343,616
│    └─BatchNorm1d: 2-16                 [128, 128, 2048]          256
│    └─PReLU: 2-17                       [128, 128, 2048]          1
├─Sequential: 1-7                        [128, 128, 4096]          --
│    └─ConvTranspose1d: 2-18             [128, 128, 4096]          671,872
│    └─BatchNorm1d: 2-19                 [128, 128, 4096]          256
│    └─PReLU: 2-20                       [128, 128, 4096]          1
├─Sequential: 1-8                        [128, 1, 4096]            --
│    └─ConvTranspose1d: 2-21             [128, 1, 4096]            5,249
│    └─Tanh: 2-22                        [128, 1, 4096]            --
==========================================================================================
Total params: 115,274,190
Trainable params: 115,274,190
Non-trainable params: 0
Total mult-adds (T): 2.82
==========================================================================================
Input size (MB): 0.07
Forward/backward pass size (MB): 3930.08
Params size (MB): 461.10
Estimated Total Size (MB): 4391.25
==========================================================================================
==========================================================================================
Layer (type:depth-idx)                   Output Shape              Param #
==========================================================================================
STAGE1_D                                 [128, 768, 16]            1,520,689
├─Sequential: 1-1                        [128, 768, 16]            --
│    └─Conv1d: 2-1                       [128, 96, 1024]           3,936
│    └─LeakyReLU: 2-2                    [128, 96, 1024]           --
│    └─Conv1d: 2-3                       [128, 192, 256]           755,712
│    └─BatchNorm1d: 2-4                  [128, 192, 256]           384
│    └─LeakyReLU: 2-5                    [128, 192, 256]           --
│    └─Conv1d: 2-6                       [128, 384, 64]            3,022,848
│    └─BatchNorm1d: 2-7                  [128, 384, 64]            768
│    └─LeakyReLU: 2-8                    [128, 384, 64]            --
│    └─Conv1d: 2-9                       [128, 768, 16]            12,091,392
│    └─BatchNorm1d: 2-10                 [128, 768, 16]            1,536
│    └─LeakyReLU: 2-11                   [128, 768, 16]            --
==========================================================================================
Total params: 17,397,265
Trainable params: 17,397,265
Non-trainable params: 0
Total mult-adds (G): 74.81
==========================================================================================
Input size (MB): 2.10
Forward/backward pass size (MB): 276.82
Params size (MB): 63.51
Estimated Total Size (MB): 342.43
…
